{"config": {"layers": [{"config": {"batch_input_shape": [null, 15000, 12], "name": "beats_learner", "dtype": "float32", "sparse": false}, "name": "beats_learner", "class_name": "InputLayer", "inbound_nodes": []}, {"config": {"bias_regularizer": null, "kernel_constraint": null, "activation": "linear", "activity_regularizer": null, "filters": 32, "kernel_regularizer": null, "name": "conv1d_1", "dilation_rate": [1], "kernel_size": [16], "kernel_initializer": {"config": {"distribution": "uniform", "scale": 1.0, "seed": null, "mode": "fan_avg"}, "class_name": "VarianceScaling"}, "trainable": true, "use_bias": true, "padding": "same", "strides": [1], "bias_constraint": null, "bias_initializer": {"config": {}, "class_name": "Zeros"}}, "name": "conv1d_1", "class_name": "Conv1D", "inbound_nodes": [[["beats_learner", 0, 0, {}]]]}, {"config": {"gamma_regularizer": null, "momentum": 0.99, "scale": true, "axis": -1, "beta_constraint": null, "gamma_initializer": {"config": {}, "class_name": "Ones"}, "beta_regularizer": null, "epsilon": 0.001, "center": true, "beta_initializer": {"config": {}, "class_name": "Zeros"}, "trainable": true, "gamma_constraint": null, "name": "batch_normalization_1", "moving_mean_initializer": {"config": {}, "class_name": "Zeros"}, "moving_variance_initializer": {"config": {}, "class_name": "Ones"}}, "name": "batch_normalization_1", "class_name": "BatchNormalization", "inbound_nodes": [[["conv1d_1", 0, 0, {}]]]}, {"config": {"activation": "relu", "trainable": true, "name": "activation_1"}, "name": "activation_1", "class_name": "Activation", "inbound_nodes": [[["batch_normalization_1", 0, 0, {}]]]}, {"config": {"bias_regularizer": null, "kernel_constraint": null, "activation": "linear", "activity_regularizer": null, "filters": 32, "kernel_regularizer": null, "name": "conv1d_2", "dilation_rate": [1], "kernel_size": [16], "kernel_initializer": {"config": {"distribution": "uniform", "scale": 1.0, "seed": null, "mode": "fan_avg"}, "class_name": "VarianceScaling"}, "trainable": true, "use_bias": true, "padding": "same", "strides": [1], "bias_constraint": null, "bias_initializer": {"config": {}, "class_name": "Zeros"}}, "name": "conv1d_2", "class_name": "Conv1D", "inbound_nodes": [[["activation_1", 0, 0, {}]]]}, {"config": {"gamma_regularizer": null, "momentum": 0.99, "scale": true, "axis": -1, "beta_constraint": null, "gamma_initializer": {"config": {}, "class_name": "Ones"}, "beta_regularizer": null, "epsilon": 0.001, "center": true, "beta_initializer": {"config": {}, "class_name": "Zeros"}, "trainable": true, "gamma_constraint": null, "name": "batch_normalization_2", "moving_mean_initializer": {"config": {}, "class_name": "Zeros"}, "moving_variance_initializer": {"config": {}, "class_name": "Ones"}}, "name": "batch_normalization_2", "class_name": "BatchNormalization", "inbound_nodes": [[["conv1d_2", 0, 0, {}]]]}, {"config": {"activation": "relu", "trainable": true, "name": "activation_2"}, "name": "activation_2", "class_name": "Activation", "inbound_nodes": [[["batch_normalization_2", 0, 0, {}]]]}, {"config": {"trainable": true, "noise_shape": null, "name": "dropout_1", "rate": 0.5, "seed": null}, "name": "dropout_1", "class_name": "Dropout", "inbound_nodes": [[["activation_2", 0, 0, {}]]]}, {"config": {"bias_regularizer": null, "kernel_constraint": null, "activation": "linear", "activity_regularizer": null, "filters": 32, "kernel_regularizer": null, "name": "conv1d_3", "dilation_rate": [1], "kernel_size": [16], "kernel_initializer": {"config": {"distribution": "uniform", "scale": 1.0, "seed": null, "mode": "fan_avg"}, "class_name": "VarianceScaling"}, "trainable": true, "use_bias": true, "padding": "same", "strides": [1], "bias_constraint": null, "bias_initializer": {"config": {}, "class_name": "Zeros"}}, "name": "conv1d_3", "class_name": "Conv1D", "inbound_nodes": [[["dropout_1", 0, 0, {}]]]}, {"config": {"padding": "valid", "strides": [2], "pool_size": [2], "name": "max_pooling1d_2", "trainable": true}, "name": "max_pooling1d_2", "class_name": "MaxPooling1D", "inbound_nodes": [[["conv1d_3", 0, 0, {}]]]}, {"config": {"padding": "valid", "strides": [2], "pool_size": [2], "name": "max_pooling1d_1", "trainable": true}, "name": "max_pooling1d_1", "class_name": "MaxPooling1D", "inbound_nodes": [[["activation_1", 0, 0, {}]]]}, {"config": {"trainable": true, "name": "add_1"}, "name": "add_1", "class_name": "Add", "inbound_nodes": [[["max_pooling1d_2", 0, 0, {}], ["max_pooling1d_1", 0, 0, {}]]]}, {"config": {"gamma_regularizer": null, "momentum": 0.99, "scale": true, "axis": -1, "beta_constraint": null, "gamma_initializer": {"config": {}, "class_name": "Ones"}, "beta_regularizer": null, "epsilon": 0.001, "center": true, "beta_initializer": {"config": {}, "class_name": "Zeros"}, "trainable": true, "gamma_constraint": null, "name": "batch_normalization_3", "moving_mean_initializer": {"config": {}, "class_name": "Zeros"}, "moving_variance_initializer": {"config": {}, "class_name": "Ones"}}, "name": "batch_normalization_3", "class_name": "BatchNormalization", "inbound_nodes": [[["add_1", 0, 0, {}]]]}, {"config": {"activation": "relu", "trainable": true, "name": "activation_3"}, "name": "activation_3", "class_name": "Activation", "inbound_nodes": [[["batch_normalization_3", 0, 0, {}]]]}, {"config": {"trainable": true, "noise_shape": null, "name": "dropout_2", "rate": 0.5, "seed": null}, "name": "dropout_2", "class_name": "Dropout", "inbound_nodes": [[["activation_3", 0, 0, {}]]]}, {"config": {"bias_regularizer": null, "kernel_constraint": null, "activation": "linear", "activity_regularizer": null, "filters": 32, "kernel_regularizer": null, "name": "conv1d_4", "dilation_rate": [1], "kernel_size": [16], "kernel_initializer": {"config": {"distribution": "uniform", "scale": 1.0, "seed": null, "mode": "fan_avg"}, "class_name": "VarianceScaling"}, "trainable": true, "use_bias": true, "padding": "same", "strides": [1], "bias_constraint": null, "bias_initializer": {"config": {}, "class_name": "Zeros"}}, "name": "conv1d_4", "class_name": "Conv1D", "inbound_nodes": [[["dropout_2", 0, 0, {}]]]}, {"config": {"gamma_regularizer": null, "momentum": 0.99, "scale": true, "axis": -1, "beta_constraint": null, "gamma_initializer": {"config": {}, "class_name": "Ones"}, "beta_regularizer": null, "epsilon": 0.001, "center": true, "beta_initializer": {"config": {}, "class_name": "Zeros"}, "trainable": true, "gamma_constraint": null, "name": "batch_normalization_4", "moving_mean_initializer": {"config": {}, "class_name": "Zeros"}, "moving_variance_initializer": {"config": {}, "class_name": "Ones"}}, "name": "batch_normalization_4", "class_name": "BatchNormalization", "inbound_nodes": [[["conv1d_4", 0, 0, {}]]]}, {"config": {"activation": "relu", "trainable": true, "name": "activation_4"}, "name": "activation_4", "class_name": "Activation", "inbound_nodes": [[["batch_normalization_4", 0, 0, {}]]]}, {"config": {"trainable": true, "noise_shape": null, "name": "dropout_3", "rate": 0.5, "seed": null}, "name": "dropout_3", "class_name": "Dropout", "inbound_nodes": [[["activation_4", 0, 0, {}]]]}, {"config": {"bias_regularizer": null, "kernel_constraint": null, "activation": "linear", "activity_regularizer": null, "filters": 32, "kernel_regularizer": null, "name": "conv1d_5", "dilation_rate": [1], "kernel_size": [16], "kernel_initializer": {"config": {"distribution": "uniform", "scale": 1.0, "seed": null, "mode": "fan_avg"}, "class_name": "VarianceScaling"}, "trainable": true, "use_bias": true, "padding": "same", "strides": [1], "bias_constraint": null, "bias_initializer": {"config": {}, "class_name": "Zeros"}}, "name": "conv1d_5", "class_name": "Conv1D", "inbound_nodes": [[["dropout_3", 0, 0, {}]]]}, {"config": {"trainable": true, "name": "add_2"}, "name": "add_2", "class_name": "Add", "inbound_nodes": [[["conv1d_5", 0, 0, {}], ["add_1", 0, 0, {}]]]}, {"config": {"gamma_regularizer": null, "momentum": 0.99, "scale": true, "axis": -1, "beta_constraint": null, "gamma_initializer": {"config": {}, "class_name": "Ones"}, "beta_regularizer": null, "epsilon": 0.001, "center": true, "beta_initializer": {"config": {}, "class_name": "Zeros"}, "trainable": true, "gamma_constraint": null, "name": "batch_normalization_5", "moving_mean_initializer": {"config": {}, "class_name": "Zeros"}, "moving_variance_initializer": {"config": {}, "class_name": "Ones"}}, "name": "batch_normalization_5", "class_name": "BatchNormalization", "inbound_nodes": [[["add_2", 0, 0, {}]]]}, {"config": {"activation": "relu", "trainable": true, "name": "activation_5"}, "name": "activation_5", "class_name": "Activation", "inbound_nodes": [[["batch_normalization_5", 0, 0, {}]]]}, {"config": {"trainable": true, "noise_shape": null, "name": "dropout_4", "rate": 0.5, "seed": null}, "name": "dropout_4", "class_name": "Dropout", "inbound_nodes": [[["activation_5", 0, 0, {}]]]}, {"config": {"bias_regularizer": null, "kernel_constraint": null, "activation": "linear", "activity_regularizer": null, "filters": 32, "kernel_regularizer": null, "name": "conv1d_6", "dilation_rate": [1], "kernel_size": [16], "kernel_initializer": {"config": {"distribution": "uniform", "scale": 1.0, "seed": null, "mode": "fan_avg"}, "class_name": "VarianceScaling"}, "trainable": true, "use_bias": true, "padding": "same", "strides": [1], "bias_constraint": null, "bias_initializer": {"config": {}, "class_name": "Zeros"}}, "name": "conv1d_6", "class_name": "Conv1D", "inbound_nodes": [[["dropout_4", 0, 0, {}]]]}, {"config": {"gamma_regularizer": null, "momentum": 0.99, "scale": true, "axis": -1, "beta_constraint": null, "gamma_initializer": {"config": {}, "class_name": "Ones"}, "beta_regularizer": null, "epsilon": 0.001, "center": true, "beta_initializer": {"config": {}, "class_name": "Zeros"}, "trainable": true, "gamma_constraint": null, "name": "batch_normalization_6", "moving_mean_initializer": {"config": {}, "class_name": "Zeros"}, "moving_variance_initializer": {"config": {}, "class_name": "Ones"}}, "name": "batch_normalization_6", "class_name": "BatchNormalization", "inbound_nodes": [[["conv1d_6", 0, 0, {}]]]}, {"config": {"activation": "relu", "trainable": true, "name": "activation_6"}, "name": "activation_6", "class_name": "Activation", "inbound_nodes": [[["batch_normalization_6", 0, 0, {}]]]}, {"config": {"trainable": true, "noise_shape": null, "name": "dropout_5", "rate": 0.5, "seed": null}, "name": "dropout_5", "class_name": "Dropout", "inbound_nodes": [[["activation_6", 0, 0, {}]]]}, {"config": {"bias_regularizer": null, "kernel_constraint": null, "activation": "linear", "activity_regularizer": null, "filters": 32, "kernel_regularizer": null, "name": "conv1d_7", "dilation_rate": [1], "kernel_size": [16], "kernel_initializer": {"config": {"distribution": "uniform", "scale": 1.0, "seed": null, "mode": "fan_avg"}, "class_name": "VarianceScaling"}, "trainable": true, "use_bias": true, "padding": "same", "strides": [1], "bias_constraint": null, "bias_initializer": {"config": {}, "class_name": "Zeros"}}, "name": "conv1d_7", "class_name": "Conv1D", "inbound_nodes": [[["dropout_5", 0, 0, {}]]]}, {"config": {"padding": "valid", "strides": [2], "pool_size": [2], "name": "max_pooling1d_3", "trainable": true}, "name": "max_pooling1d_3", "class_name": "MaxPooling1D", "inbound_nodes": [[["conv1d_7", 0, 0, {}]]]}, {"config": {"padding": "valid", "strides": [2], "pool_size": [2], "name": "max_pooling1d_4", "trainable": true}, "name": "max_pooling1d_4", "class_name": "MaxPooling1D", "inbound_nodes": [[["add_2", 0, 0, {}]]]}, {"config": {"trainable": true, "name": "add_3"}, "name": "add_3", "class_name": "Add", "inbound_nodes": [[["max_pooling1d_3", 0, 0, {}], ["max_pooling1d_4", 0, 0, {}]]]}, {"config": {"gamma_regularizer": null, "momentum": 0.99, "scale": true, "axis": -1, "beta_constraint": null, "gamma_initializer": {"config": {}, "class_name": "Ones"}, "beta_regularizer": null, "epsilon": 0.001, "center": true, "beta_initializer": {"config": {}, "class_name": "Zeros"}, "trainable": true, "gamma_constraint": null, "name": "batch_normalization_7", "moving_mean_initializer": {"config": {}, "class_name": "Zeros"}, "moving_variance_initializer": {"config": {}, "class_name": "Ones"}}, "name": "batch_normalization_7", "class_name": "BatchNormalization", "inbound_nodes": [[["add_3", 0, 0, {}]]]}, {"config": {"activation": "relu", "trainable": true, "name": "activation_7"}, "name": "activation_7", "class_name": "Activation", "inbound_nodes": [[["batch_normalization_7", 0, 0, {}]]]}, {"config": {"trainable": true, "noise_shape": null, "name": "dropout_6", "rate": 0.5, "seed": null}, "name": "dropout_6", "class_name": "Dropout", "inbound_nodes": [[["activation_7", 0, 0, {}]]]}, {"config": {"bias_regularizer": null, "kernel_constraint": null, "activation": "linear", "activity_regularizer": null, "filters": 32, "kernel_regularizer": null, "name": "conv1d_8", "dilation_rate": [1], "kernel_size": [16], "kernel_initializer": {"config": {"distribution": "uniform", "scale": 1.0, "seed": null, "mode": "fan_avg"}, "class_name": "VarianceScaling"}, "trainable": true, "use_bias": true, "padding": "same", "strides": [1], "bias_constraint": null, "bias_initializer": {"config": {}, "class_name": "Zeros"}}, "name": "conv1d_8", "class_name": "Conv1D", "inbound_nodes": [[["dropout_6", 0, 0, {}]]]}, {"config": {"gamma_regularizer": null, "momentum": 0.99, "scale": true, "axis": -1, "beta_constraint": null, "gamma_initializer": {"config": {}, "class_name": "Ones"}, "beta_regularizer": null, "epsilon": 0.001, "center": true, "beta_initializer": {"config": {}, "class_name": "Zeros"}, "trainable": true, "gamma_constraint": null, "name": "batch_normalization_8", "moving_mean_initializer": {"config": {}, "class_name": "Zeros"}, "moving_variance_initializer": {"config": {}, "class_name": "Ones"}}, "name": "batch_normalization_8", "class_name": "BatchNormalization", "inbound_nodes": [[["conv1d_8", 0, 0, {}]]]}, {"config": {"activation": "relu", "trainable": true, "name": "activation_8"}, "name": "activation_8", "class_name": "Activation", "inbound_nodes": [[["batch_normalization_8", 0, 0, {}]]]}, {"config": {"trainable": true, "noise_shape": null, "name": "dropout_7", "rate": 0.5, "seed": null}, "name": "dropout_7", "class_name": "Dropout", "inbound_nodes": [[["activation_8", 0, 0, {}]]]}, {"config": {"bias_regularizer": null, "kernel_constraint": null, "activation": "linear", "activity_regularizer": null, "filters": 32, "kernel_regularizer": null, "name": "conv1d_9", "dilation_rate": [1], "kernel_size": [16], "kernel_initializer": {"config": {"distribution": "uniform", "scale": 1.0, "seed": null, "mode": "fan_avg"}, "class_name": "VarianceScaling"}, "trainable": true, "use_bias": true, "padding": "same", "strides": [1], "bias_constraint": null, "bias_initializer": {"config": {}, "class_name": "Zeros"}}, "name": "conv1d_9", "class_name": "Conv1D", "inbound_nodes": [[["dropout_7", 0, 0, {}]]]}, {"config": {"trainable": true, "name": "add_4"}, "name": "add_4", "class_name": "Add", "inbound_nodes": [[["conv1d_9", 0, 0, {}], ["add_3", 0, 0, {}]]]}, {"config": {"gamma_regularizer": null, "momentum": 0.99, "scale": true, "axis": -1, "beta_constraint": null, "gamma_initializer": {"config": {}, "class_name": "Ones"}, "beta_regularizer": null, "epsilon": 0.001, "center": true, "beta_initializer": {"config": {}, "class_name": "Zeros"}, "trainable": true, "gamma_constraint": null, "name": "batch_normalization_9", "moving_mean_initializer": {"config": {}, "class_name": "Zeros"}, "moving_variance_initializer": {"config": {}, "class_name": "Ones"}}, "name": "batch_normalization_9", "class_name": "BatchNormalization", "inbound_nodes": [[["add_4", 0, 0, {}]]]}, {"config": {"activation": "relu", "trainable": true, "name": "activation_9"}, "name": "activation_9", "class_name": "Activation", "inbound_nodes": [[["batch_normalization_9", 0, 0, {}]]]}, {"config": {"trainable": true, "noise_shape": null, "name": "dropout_8", "rate": 0.5, "seed": null}, "name": "dropout_8", "class_name": "Dropout", "inbound_nodes": [[["activation_9", 0, 0, {}]]]}, {"config": {"bias_regularizer": null, "kernel_constraint": null, "activation": "linear", "activity_regularizer": null, "filters": 64, "kernel_regularizer": null, "name": "conv1d_10", "dilation_rate": [1], "kernel_size": [16], "kernel_initializer": {"config": {"distribution": "uniform", "scale": 1.0, "seed": null, "mode": "fan_avg"}, "class_name": "VarianceScaling"}, "trainable": true, "use_bias": true, "padding": "same", "strides": [1], "bias_constraint": null, "bias_initializer": {"config": {}, "class_name": "Zeros"}}, "name": "conv1d_10", "class_name": "Conv1D", "inbound_nodes": [[["dropout_8", 0, 0, {}]]]}, {"config": {"gamma_regularizer": null, "momentum": 0.99, "scale": true, "axis": -1, "beta_constraint": null, "gamma_initializer": {"config": {}, "class_name": "Ones"}, "beta_regularizer": null, "epsilon": 0.001, "center": true, "beta_initializer": {"config": {}, "class_name": "Zeros"}, "trainable": true, "gamma_constraint": null, "name": "batch_normalization_10", "moving_mean_initializer": {"config": {}, "class_name": "Zeros"}, "moving_variance_initializer": {"config": {}, "class_name": "Ones"}}, "name": "batch_normalization_10", "class_name": "BatchNormalization", "inbound_nodes": [[["conv1d_10", 0, 0, {}]]]}, {"config": {"activation": "relu", "trainable": true, "name": "activation_10"}, "name": "activation_10", "class_name": "Activation", "inbound_nodes": [[["batch_normalization_10", 0, 0, {}]]]}, {"config": {"trainable": true, "noise_shape": null, "name": "dropout_9", "rate": 0.5, "seed": null}, "name": "dropout_9", "class_name": "Dropout", "inbound_nodes": [[["activation_10", 0, 0, {}]]]}, {"config": {"bias_regularizer": null, "kernel_constraint": null, "activation": "linear", "activity_regularizer": null, "filters": 64, "kernel_regularizer": null, "name": "conv1d_11", "dilation_rate": [1], "kernel_size": [16], "kernel_initializer": {"config": {"distribution": "uniform", "scale": 1.0, "seed": null, "mode": "fan_avg"}, "class_name": "VarianceScaling"}, "trainable": true, "use_bias": true, "padding": "same", "strides": [1], "bias_constraint": null, "bias_initializer": {"config": {}, "class_name": "Zeros"}}, "name": "conv1d_11", "class_name": "Conv1D", "inbound_nodes": [[["dropout_9", 0, 0, {}]]]}, {"config": {"padding": "valid", "strides": [2], "pool_size": [2], "name": "max_pooling1d_6", "trainable": true}, "name": "max_pooling1d_6", "class_name": "MaxPooling1D", "inbound_nodes": [[["add_4", 0, 0, {}]]]}, {"config": {"padding": "valid", "strides": [2], "pool_size": [2], "name": "max_pooling1d_5", "trainable": true}, "name": "max_pooling1d_5", "class_name": "MaxPooling1D", "inbound_nodes": [[["conv1d_11", 0, 0, {}]]]}, {"config": {"bias_regularizer": null, "kernel_constraint": null, "activation": "linear", "activity_regularizer": null, "filters": 64, "kernel_regularizer": null, "name": "conv1d_12", "dilation_rate": [1], "kernel_size": [1], "kernel_initializer": {"config": {"distribution": "uniform", "scale": 1.0, "seed": null, "mode": "fan_avg"}, "class_name": "VarianceScaling"}, "trainable": true, "use_bias": true, "padding": "same", "strides": [1], "bias_constraint": null, "bias_initializer": {"config": {}, "class_name": "Zeros"}}, "name": "conv1d_12", "class_name": "Conv1D", "inbound_nodes": [[["max_pooling1d_6", 0, 0, {}]]]}, {"config": {"trainable": true, "name": "add_5"}, "name": "add_5", "class_name": "Add", "inbound_nodes": [[["max_pooling1d_5", 0, 0, {}], ["conv1d_12", 0, 0, {}]]]}, {"config": {"gamma_regularizer": null, "momentum": 0.99, "scale": true, "axis": -1, "beta_constraint": null, "gamma_initializer": {"config": {}, "class_name": "Ones"}, "beta_regularizer": null, "epsilon": 0.001, "center": true, "beta_initializer": {"config": {}, "class_name": "Zeros"}, "trainable": true, "gamma_constraint": null, "name": "batch_normalization_11", "moving_mean_initializer": {"config": {}, "class_name": "Zeros"}, "moving_variance_initializer": {"config": {}, "class_name": "Ones"}}, "name": "batch_normalization_11", "class_name": "BatchNormalization", "inbound_nodes": [[["add_5", 0, 0, {}]]]}, {"config": {"activation": "relu", "trainable": true, "name": "activation_11"}, "name": "activation_11", "class_name": "Activation", "inbound_nodes": [[["batch_normalization_11", 0, 0, {}]]]}, {"config": {"trainable": true, "noise_shape": null, "name": "dropout_10", "rate": 0.5, "seed": null}, "name": "dropout_10", "class_name": "Dropout", "inbound_nodes": [[["activation_11", 0, 0, {}]]]}, {"config": {"bias_regularizer": null, "kernel_constraint": null, "activation": "linear", "activity_regularizer": null, "filters": 64, "kernel_regularizer": null, "name": "conv1d_13", "dilation_rate": [1], "kernel_size": [16], "kernel_initializer": {"config": {"distribution": "uniform", "scale": 1.0, "seed": null, "mode": "fan_avg"}, "class_name": "VarianceScaling"}, "trainable": true, "use_bias": true, "padding": "same", "strides": [1], "bias_constraint": null, "bias_initializer": {"config": {}, "class_name": "Zeros"}}, "name": "conv1d_13", "class_name": "Conv1D", "inbound_nodes": [[["dropout_10", 0, 0, {}]]]}, {"config": {"gamma_regularizer": null, "momentum": 0.99, "scale": true, "axis": -1, "beta_constraint": null, "gamma_initializer": {"config": {}, "class_name": "Ones"}, "beta_regularizer": null, "epsilon": 0.001, "center": true, "beta_initializer": {"config": {}, "class_name": "Zeros"}, "trainable": true, "gamma_constraint": null, "name": "batch_normalization_12", "moving_mean_initializer": {"config": {}, "class_name": "Zeros"}, "moving_variance_initializer": {"config": {}, "class_name": "Ones"}}, "name": "batch_normalization_12", "class_name": "BatchNormalization", "inbound_nodes": [[["conv1d_13", 0, 0, {}]]]}, {"config": {"activation": "relu", "trainable": true, "name": "activation_12"}, "name": "activation_12", "class_name": "Activation", "inbound_nodes": [[["batch_normalization_12", 0, 0, {}]]]}, {"config": {"trainable": true, "noise_shape": null, "name": "dropout_11", "rate": 0.5, "seed": null}, "name": "dropout_11", "class_name": "Dropout", "inbound_nodes": [[["activation_12", 0, 0, {}]]]}, {"config": {"bias_regularizer": null, "kernel_constraint": null, "activation": "linear", "activity_regularizer": null, "filters": 64, "kernel_regularizer": null, "name": "conv1d_14", "dilation_rate": [1], "kernel_size": [16], "kernel_initializer": {"config": {"distribution": "uniform", "scale": 1.0, "seed": null, "mode": "fan_avg"}, "class_name": "VarianceScaling"}, "trainable": true, "use_bias": true, "padding": "same", "strides": [1], "bias_constraint": null, "bias_initializer": {"config": {}, "class_name": "Zeros"}}, "name": "conv1d_14", "class_name": "Conv1D", "inbound_nodes": [[["dropout_11", 0, 0, {}]]]}, {"config": {"trainable": true, "name": "add_6"}, "name": "add_6", "class_name": "Add", "inbound_nodes": [[["conv1d_14", 0, 0, {}], ["add_5", 0, 0, {}]]]}, {"config": {"gamma_regularizer": null, "momentum": 0.99, "scale": true, "axis": -1, "beta_constraint": null, "gamma_initializer": {"config": {}, "class_name": "Ones"}, "beta_regularizer": null, "epsilon": 0.001, "center": true, "beta_initializer": {"config": {}, "class_name": "Zeros"}, "trainable": true, "gamma_constraint": null, "name": "batch_normalization_13", "moving_mean_initializer": {"config": {}, "class_name": "Zeros"}, "moving_variance_initializer": {"config": {}, "class_name": "Ones"}}, "name": "batch_normalization_13", "class_name": "BatchNormalization", "inbound_nodes": [[["add_6", 0, 0, {}]]]}, {"config": {"activation": "relu", "trainable": true, "name": "activation_13"}, "name": "activation_13", "class_name": "Activation", "inbound_nodes": [[["batch_normalization_13", 0, 0, {}]]]}, {"config": {"trainable": true, "noise_shape": null, "name": "dropout_12", "rate": 0.5, "seed": null}, "name": "dropout_12", "class_name": "Dropout", "inbound_nodes": [[["activation_13", 0, 0, {}]]]}, {"config": {"bias_regularizer": null, "kernel_constraint": null, "activation": "linear", "activity_regularizer": null, "filters": 64, "kernel_regularizer": null, "name": "conv1d_15", "dilation_rate": [1], "kernel_size": [8], "kernel_initializer": {"config": {"distribution": "uniform", "scale": 1.0, "seed": null, "mode": "fan_avg"}, "class_name": "VarianceScaling"}, "trainable": true, "use_bias": true, "padding": "same", "strides": [1], "bias_constraint": null, "bias_initializer": {"config": {}, "class_name": "Zeros"}}, "name": "conv1d_15", "class_name": "Conv1D", "inbound_nodes": [[["dropout_12", 0, 0, {}]]]}, {"config": {"gamma_regularizer": null, "momentum": 0.99, "scale": true, "axis": -1, "beta_constraint": null, "gamma_initializer": {"config": {}, "class_name": "Ones"}, "beta_regularizer": null, "epsilon": 0.001, "center": true, "beta_initializer": {"config": {}, "class_name": "Zeros"}, "trainable": true, "gamma_constraint": null, "name": "batch_normalization_14", "moving_mean_initializer": {"config": {}, "class_name": "Zeros"}, "moving_variance_initializer": {"config": {}, "class_name": "Ones"}}, "name": "batch_normalization_14", "class_name": "BatchNormalization", "inbound_nodes": [[["conv1d_15", 0, 0, {}]]]}, {"config": {"activation": "relu", "trainable": true, "name": "activation_14"}, "name": "activation_14", "class_name": "Activation", "inbound_nodes": [[["batch_normalization_14", 0, 0, {}]]]}, {"config": {"trainable": true, "noise_shape": null, "name": "dropout_13", "rate": 0.5, "seed": null}, "name": "dropout_13", "class_name": "Dropout", "inbound_nodes": [[["activation_14", 0, 0, {}]]]}, {"config": {"bias_regularizer": null, "kernel_constraint": null, "activation": "linear", "activity_regularizer": null, "filters": 64, "kernel_regularizer": null, "name": "conv1d_16", "dilation_rate": [1], "kernel_size": [8], "kernel_initializer": {"config": {"distribution": "uniform", "scale": 1.0, "seed": null, "mode": "fan_avg"}, "class_name": "VarianceScaling"}, "trainable": true, "use_bias": true, "padding": "same", "strides": [1], "bias_constraint": null, "bias_initializer": {"config": {}, "class_name": "Zeros"}}, "name": "conv1d_16", "class_name": "Conv1D", "inbound_nodes": [[["dropout_13", 0, 0, {}]]]}, {"config": {"padding": "valid", "strides": [2], "pool_size": [2], "name": "max_pooling1d_7", "trainable": true}, "name": "max_pooling1d_7", "class_name": "MaxPooling1D", "inbound_nodes": [[["conv1d_16", 0, 0, {}]]]}, {"config": {"padding": "valid", "strides": [2], "pool_size": [2], "name": "max_pooling1d_8", "trainable": true}, "name": "max_pooling1d_8", "class_name": "MaxPooling1D", "inbound_nodes": [[["add_6", 0, 0, {}]]]}, {"config": {"trainable": true, "name": "add_7"}, "name": "add_7", "class_name": "Add", "inbound_nodes": [[["max_pooling1d_7", 0, 0, {}], ["max_pooling1d_8", 0, 0, {}]]]}, {"config": {"gamma_regularizer": null, "momentum": 0.99, "scale": true, "axis": -1, "beta_constraint": null, "gamma_initializer": {"config": {}, "class_name": "Ones"}, "beta_regularizer": null, "epsilon": 0.001, "center": true, "beta_initializer": {"config": {}, "class_name": "Zeros"}, "trainable": true, "gamma_constraint": null, "name": "batch_normalization_15", "moving_mean_initializer": {"config": {}, "class_name": "Zeros"}, "moving_variance_initializer": {"config": {}, "class_name": "Ones"}}, "name": "batch_normalization_15", "class_name": "BatchNormalization", "inbound_nodes": [[["add_7", 0, 0, {}]]]}, {"config": {"activation": "relu", "trainable": true, "name": "activation_15"}, "name": "activation_15", "class_name": "Activation", "inbound_nodes": [[["batch_normalization_15", 0, 0, {}]]]}, {"config": {"trainable": true, "noise_shape": null, "name": "dropout_14", "rate": 0.5, "seed": null}, "name": "dropout_14", "class_name": "Dropout", "inbound_nodes": [[["activation_15", 0, 0, {}]]]}, {"config": {"bias_regularizer": null, "kernel_constraint": null, "activation": "linear", "activity_regularizer": null, "filters": 64, "kernel_regularizer": null, "name": "conv1d_17", "dilation_rate": [1], "kernel_size": [8], "kernel_initializer": {"config": {"distribution": "uniform", "scale": 1.0, "seed": null, "mode": "fan_avg"}, "class_name": "VarianceScaling"}, "trainable": true, "use_bias": true, "padding": "same", "strides": [1], "bias_constraint": null, "bias_initializer": {"config": {}, "class_name": "Zeros"}}, "name": "conv1d_17", "class_name": "Conv1D", "inbound_nodes": [[["dropout_14", 0, 0, {}]]]}, {"config": {"gamma_regularizer": null, "momentum": 0.99, "scale": true, "axis": -1, "beta_constraint": null, "gamma_initializer": {"config": {}, "class_name": "Ones"}, "beta_regularizer": null, "epsilon": 0.001, "center": true, "beta_initializer": {"config": {}, "class_name": "Zeros"}, "trainable": true, "gamma_constraint": null, "name": "batch_normalization_16", "moving_mean_initializer": {"config": {}, "class_name": "Zeros"}, "moving_variance_initializer": {"config": {}, "class_name": "Ones"}}, "name": "batch_normalization_16", "class_name": "BatchNormalization", "inbound_nodes": [[["conv1d_17", 0, 0, {}]]]}, {"config": {"activation": "relu", "trainable": true, "name": "activation_16"}, "name": "activation_16", "class_name": "Activation", "inbound_nodes": [[["batch_normalization_16", 0, 0, {}]]]}, {"config": {"trainable": true, "noise_shape": null, "name": "dropout_15", "rate": 0.5, "seed": null}, "name": "dropout_15", "class_name": "Dropout", "inbound_nodes": [[["activation_16", 0, 0, {}]]]}, {"config": {"bias_regularizer": null, "kernel_constraint": null, "activation": "linear", "activity_regularizer": null, "filters": 64, "kernel_regularizer": null, "name": "conv1d_18", "dilation_rate": [1], "kernel_size": [8], "kernel_initializer": {"config": {"distribution": "uniform", "scale": 1.0, "seed": null, "mode": "fan_avg"}, "class_name": "VarianceScaling"}, "trainable": true, "use_bias": true, "padding": "same", "strides": [1], "bias_constraint": null, "bias_initializer": {"config": {}, "class_name": "Zeros"}}, "name": "conv1d_18", "class_name": "Conv1D", "inbound_nodes": [[["dropout_15", 0, 0, {}]]]}, {"config": {"trainable": true, "name": "add_8"}, "name": "add_8", "class_name": "Add", "inbound_nodes": [[["conv1d_18", 0, 0, {}], ["add_7", 0, 0, {}]]]}, {"config": {"gamma_regularizer": null, "momentum": 0.99, "scale": true, "axis": -1, "beta_constraint": null, "gamma_initializer": {"config": {}, "class_name": "Ones"}, "beta_regularizer": null, "epsilon": 0.001, "center": true, "beta_initializer": {"config": {}, "class_name": "Zeros"}, "trainable": true, "gamma_constraint": null, "name": "batch_normalization_17", "moving_mean_initializer": {"config": {}, "class_name": "Zeros"}, "moving_variance_initializer": {"config": {}, "class_name": "Ones"}}, "name": "batch_normalization_17", "class_name": "BatchNormalization", "inbound_nodes": [[["add_8", 0, 0, {}]]]}, {"config": {"activation": "relu", "trainable": true, "name": "activation_17"}, "name": "activation_17", "class_name": "Activation", "inbound_nodes": [[["batch_normalization_17", 0, 0, {}]]]}, {"config": {"trainable": true, "noise_shape": null, "name": "dropout_16", "rate": 0.5, "seed": null}, "name": "dropout_16", "class_name": "Dropout", "inbound_nodes": [[["activation_17", 0, 0, {}]]]}, {"config": {"bias_regularizer": null, "kernel_constraint": null, "activation": "linear", "activity_regularizer": null, "filters": 96, "kernel_regularizer": null, "name": "conv1d_19", "dilation_rate": [1], "kernel_size": [8], "kernel_initializer": {"config": {"distribution": "uniform", "scale": 1.0, "seed": null, "mode": "fan_avg"}, "class_name": "VarianceScaling"}, "trainable": true, "use_bias": true, "padding": "same", "strides": [1], "bias_constraint": null, "bias_initializer": {"config": {}, "class_name": "Zeros"}}, "name": "conv1d_19", "class_name": "Conv1D", "inbound_nodes": [[["dropout_16", 0, 0, {}]]]}, {"config": {"gamma_regularizer": null, "momentum": 0.99, "scale": true, "axis": -1, "beta_constraint": null, "gamma_initializer": {"config": {}, "class_name": "Ones"}, "beta_regularizer": null, "epsilon": 0.001, "center": true, "beta_initializer": {"config": {}, "class_name": "Zeros"}, "trainable": true, "gamma_constraint": null, "name": "batch_normalization_18", "moving_mean_initializer": {"config": {}, "class_name": "Zeros"}, "moving_variance_initializer": {"config": {}, "class_name": "Ones"}}, "name": "batch_normalization_18", "class_name": "BatchNormalization", "inbound_nodes": [[["conv1d_19", 0, 0, {}]]]}, {"config": {"activation": "relu", "trainable": true, "name": "activation_18"}, "name": "activation_18", "class_name": "Activation", "inbound_nodes": [[["batch_normalization_18", 0, 0, {}]]]}, {"config": {"trainable": true, "noise_shape": null, "name": "dropout_17", "rate": 0.5, "seed": null}, "name": "dropout_17", "class_name": "Dropout", "inbound_nodes": [[["activation_18", 0, 0, {}]]]}, {"config": {"bias_regularizer": null, "kernel_constraint": null, "activation": "linear", "activity_regularizer": null, "filters": 96, "kernel_regularizer": null, "name": "conv1d_20", "dilation_rate": [1], "kernel_size": [8], "kernel_initializer": {"config": {"distribution": "uniform", "scale": 1.0, "seed": null, "mode": "fan_avg"}, "class_name": "VarianceScaling"}, "trainable": true, "use_bias": true, "padding": "same", "strides": [1], "bias_constraint": null, "bias_initializer": {"config": {}, "class_name": "Zeros"}}, "name": "conv1d_20", "class_name": "Conv1D", "inbound_nodes": [[["dropout_17", 0, 0, {}]]]}, {"config": {"padding": "valid", "strides": [2], "pool_size": [2], "name": "max_pooling1d_10", "trainable": true}, "name": "max_pooling1d_10", "class_name": "MaxPooling1D", "inbound_nodes": [[["add_8", 0, 0, {}]]]}, {"config": {"padding": "valid", "strides": [2], "pool_size": [2], "name": "max_pooling1d_9", "trainable": true}, "name": "max_pooling1d_9", "class_name": "MaxPooling1D", "inbound_nodes": [[["conv1d_20", 0, 0, {}]]]}, {"config": {"bias_regularizer": null, "kernel_constraint": null, "activation": "linear", "activity_regularizer": null, "filters": 96, "kernel_regularizer": null, "name": "conv1d_21", "dilation_rate": [1], "kernel_size": [1], "kernel_initializer": {"config": {"distribution": "uniform", "scale": 1.0, "seed": null, "mode": "fan_avg"}, "class_name": "VarianceScaling"}, "trainable": true, "use_bias": true, "padding": "same", "strides": [1], "bias_constraint": null, "bias_initializer": {"config": {}, "class_name": "Zeros"}}, "name": "conv1d_21", "class_name": "Conv1D", "inbound_nodes": [[["max_pooling1d_10", 0, 0, {}]]]}, {"config": {"trainable": true, "name": "add_9"}, "name": "add_9", "class_name": "Add", "inbound_nodes": [[["max_pooling1d_9", 0, 0, {}], ["conv1d_21", 0, 0, {}]]]}, {"config": {"gamma_regularizer": null, "momentum": 0.99, "scale": true, "axis": -1, "beta_constraint": null, "gamma_initializer": {"config": {}, "class_name": "Ones"}, "beta_regularizer": null, "epsilon": 0.001, "center": true, "beta_initializer": {"config": {}, "class_name": "Zeros"}, "trainable": true, "gamma_constraint": null, "name": "batch_normalization_19", "moving_mean_initializer": {"config": {}, "class_name": "Zeros"}, "moving_variance_initializer": {"config": {}, "class_name": "Ones"}}, "name": "batch_normalization_19", "class_name": "BatchNormalization", "inbound_nodes": [[["add_9", 0, 0, {}]]]}, {"config": {"activation": "relu", "trainable": true, "name": "activation_19"}, "name": "activation_19", "class_name": "Activation", "inbound_nodes": [[["batch_normalization_19", 0, 0, {}]]]}, {"config": {"trainable": true, "noise_shape": null, "name": "dropout_18", "rate": 0.5, "seed": null}, "name": "dropout_18", "class_name": "Dropout", "inbound_nodes": [[["activation_19", 0, 0, {}]]]}, {"config": {"bias_regularizer": null, "kernel_constraint": null, "activation": "linear", "activity_regularizer": null, "filters": 96, "kernel_regularizer": null, "name": "conv1d_22", "dilation_rate": [1], "kernel_size": [8], "kernel_initializer": {"config": {"distribution": "uniform", "scale": 1.0, "seed": null, "mode": "fan_avg"}, "class_name": "VarianceScaling"}, "trainable": true, "use_bias": true, "padding": "same", "strides": [1], "bias_constraint": null, "bias_initializer": {"config": {}, "class_name": "Zeros"}}, "name": "conv1d_22", "class_name": "Conv1D", "inbound_nodes": [[["dropout_18", 0, 0, {}]]]}, {"config": {"gamma_regularizer": null, "momentum": 0.99, "scale": true, "axis": -1, "beta_constraint": null, "gamma_initializer": {"config": {}, "class_name": "Ones"}, "beta_regularizer": null, "epsilon": 0.001, "center": true, "beta_initializer": {"config": {}, "class_name": "Zeros"}, "trainable": true, "gamma_constraint": null, "name": "batch_normalization_20", "moving_mean_initializer": {"config": {}, "class_name": "Zeros"}, "moving_variance_initializer": {"config": {}, "class_name": "Ones"}}, "name": "batch_normalization_20", "class_name": "BatchNormalization", "inbound_nodes": [[["conv1d_22", 0, 0, {}]]]}, {"config": {"activation": "relu", "trainable": true, "name": "activation_20"}, "name": "activation_20", "class_name": "Activation", "inbound_nodes": [[["batch_normalization_20", 0, 0, {}]]]}, {"config": {"trainable": true, "noise_shape": null, "name": "dropout_19", "rate": 0.5, "seed": null}, "name": "dropout_19", "class_name": "Dropout", "inbound_nodes": [[["activation_20", 0, 0, {}]]]}, {"config": {"bias_regularizer": null, "kernel_constraint": null, "activation": "linear", "activity_regularizer": null, "filters": 96, "kernel_regularizer": null, "name": "conv1d_23", "dilation_rate": [1], "kernel_size": [8], "kernel_initializer": {"config": {"distribution": "uniform", "scale": 1.0, "seed": null, "mode": "fan_avg"}, "class_name": "VarianceScaling"}, "trainable": true, "use_bias": true, "padding": "same", "strides": [1], "bias_constraint": null, "bias_initializer": {"config": {}, "class_name": "Zeros"}}, "name": "conv1d_23", "class_name": "Conv1D", "inbound_nodes": [[["dropout_19", 0, 0, {}]]]}, {"config": {"trainable": true, "name": "add_10"}, "name": "add_10", "class_name": "Add", "inbound_nodes": [[["conv1d_23", 0, 0, {}], ["add_9", 0, 0, {}]]]}, {"config": {"gamma_regularizer": null, "momentum": 0.99, "scale": true, "axis": -1, "beta_constraint": null, "gamma_initializer": {"config": {}, "class_name": "Ones"}, "beta_regularizer": null, "epsilon": 0.001, "center": true, "beta_initializer": {"config": {}, "class_name": "Zeros"}, "trainable": true, "gamma_constraint": null, "name": "batch_normalization_21", "moving_mean_initializer": {"config": {}, "class_name": "Zeros"}, "moving_variance_initializer": {"config": {}, "class_name": "Ones"}}, "name": "batch_normalization_21", "class_name": "BatchNormalization", "inbound_nodes": [[["add_10", 0, 0, {}]]]}, {"config": {"activation": "relu", "trainable": true, "name": "activation_21"}, "name": "activation_21", "class_name": "Activation", "inbound_nodes": [[["batch_normalization_21", 0, 0, {}]]]}, {"config": {"trainable": true, "noise_shape": null, "name": "dropout_20", "rate": 0.5, "seed": null}, "name": "dropout_20", "class_name": "Dropout", "inbound_nodes": [[["activation_21", 0, 0, {}]]]}, {"config": {"bias_regularizer": null, "kernel_constraint": null, "activation": "linear", "activity_regularizer": null, "filters": 96, "kernel_regularizer": null, "name": "conv1d_24", "dilation_rate": [1], "kernel_size": [8], "kernel_initializer": {"config": {"distribution": "uniform", "scale": 1.0, "seed": null, "mode": "fan_avg"}, "class_name": "VarianceScaling"}, "trainable": true, "use_bias": true, "padding": "same", "strides": [1], "bias_constraint": null, "bias_initializer": {"config": {}, "class_name": "Zeros"}}, "name": "conv1d_24", "class_name": "Conv1D", "inbound_nodes": [[["dropout_20", 0, 0, {}]]]}, {"config": {"gamma_regularizer": null, "momentum": 0.99, "scale": true, "axis": -1, "beta_constraint": null, "gamma_initializer": {"config": {}, "class_name": "Ones"}, "beta_regularizer": null, "epsilon": 0.001, "center": true, "beta_initializer": {"config": {}, "class_name": "Zeros"}, "trainable": true, "gamma_constraint": null, "name": "batch_normalization_22", "moving_mean_initializer": {"config": {}, "class_name": "Zeros"}, "moving_variance_initializer": {"config": {}, "class_name": "Ones"}}, "name": "batch_normalization_22", "class_name": "BatchNormalization", "inbound_nodes": [[["conv1d_24", 0, 0, {}]]]}, {"config": {"activation": "relu", "trainable": true, "name": "activation_22"}, "name": "activation_22", "class_name": "Activation", "inbound_nodes": [[["batch_normalization_22", 0, 0, {}]]]}, {"config": {"trainable": true, "noise_shape": null, "name": "dropout_21", "rate": 0.5, "seed": null}, "name": "dropout_21", "class_name": "Dropout", "inbound_nodes": [[["activation_22", 0, 0, {}]]]}, {"config": {"bias_regularizer": null, "kernel_constraint": null, "activation": "linear", "activity_regularizer": null, "filters": 96, "kernel_regularizer": null, "name": "conv1d_25", "dilation_rate": [1], "kernel_size": [8], "kernel_initializer": {"config": {"distribution": "uniform", "scale": 1.0, "seed": null, "mode": "fan_avg"}, "class_name": "VarianceScaling"}, "trainable": true, "use_bias": true, "padding": "same", "strides": [1], "bias_constraint": null, "bias_initializer": {"config": {}, "class_name": "Zeros"}}, "name": "conv1d_25", "class_name": "Conv1D", "inbound_nodes": [[["dropout_21", 0, 0, {}]]]}, {"config": {"padding": "valid", "strides": [2], "pool_size": [2], "name": "max_pooling1d_11", "trainable": true}, "name": "max_pooling1d_11", "class_name": "MaxPooling1D", "inbound_nodes": [[["conv1d_25", 0, 0, {}]]]}, {"config": {"padding": "valid", "strides": [2], "pool_size": [2], "name": "max_pooling1d_12", "trainable": true}, "name": "max_pooling1d_12", "class_name": "MaxPooling1D", "inbound_nodes": [[["add_10", 0, 0, {}]]]}, {"config": {"trainable": true, "name": "add_11"}, "name": "add_11", "class_name": "Add", "inbound_nodes": [[["max_pooling1d_11", 0, 0, {}], ["max_pooling1d_12", 0, 0, {}]]]}, {"config": {"gamma_regularizer": null, "momentum": 0.99, "scale": true, "axis": -1, "beta_constraint": null, "gamma_initializer": {"config": {}, "class_name": "Ones"}, "beta_regularizer": null, "epsilon": 0.001, "center": true, "beta_initializer": {"config": {}, "class_name": "Zeros"}, "trainable": true, "gamma_constraint": null, "name": "batch_normalization_23", "moving_mean_initializer": {"config": {}, "class_name": "Zeros"}, "moving_variance_initializer": {"config": {}, "class_name": "Ones"}}, "name": "batch_normalization_23", "class_name": "BatchNormalization", "inbound_nodes": [[["add_11", 0, 0, {}]]]}, {"config": {"activation": "relu", "trainable": true, "name": "activation_23"}, "name": "activation_23", "class_name": "Activation", "inbound_nodes": [[["batch_normalization_23", 0, 0, {}]]]}, {"config": {"trainable": true, "noise_shape": null, "name": "dropout_22", "rate": 0.5, "seed": null}, "name": "dropout_22", "class_name": "Dropout", "inbound_nodes": [[["activation_23", 0, 0, {}]]]}, {"config": {"bias_regularizer": null, "kernel_constraint": null, "activation": "linear", "activity_regularizer": null, "filters": 96, "kernel_regularizer": null, "name": "conv1d_26", "dilation_rate": [1], "kernel_size": [8], "kernel_initializer": {"config": {"distribution": "uniform", "scale": 1.0, "seed": null, "mode": "fan_avg"}, "class_name": "VarianceScaling"}, "trainable": true, "use_bias": true, "padding": "same", "strides": [1], "bias_constraint": null, "bias_initializer": {"config": {}, "class_name": "Zeros"}}, "name": "conv1d_26", "class_name": "Conv1D", "inbound_nodes": [[["dropout_22", 0, 0, {}]]]}, {"config": {"gamma_regularizer": null, "momentum": 0.99, "scale": true, "axis": -1, "beta_constraint": null, "gamma_initializer": {"config": {}, "class_name": "Ones"}, "beta_regularizer": null, "epsilon": 0.001, "center": true, "beta_initializer": {"config": {}, "class_name": "Zeros"}, "trainable": true, "gamma_constraint": null, "name": "batch_normalization_24", "moving_mean_initializer": {"config": {}, "class_name": "Zeros"}, "moving_variance_initializer": {"config": {}, "class_name": "Ones"}}, "name": "batch_normalization_24", "class_name": "BatchNormalization", "inbound_nodes": [[["conv1d_26", 0, 0, {}]]]}, {"config": {"activation": "relu", "trainable": true, "name": "activation_24"}, "name": "activation_24", "class_name": "Activation", "inbound_nodes": [[["batch_normalization_24", 0, 0, {}]]]}, {"config": {"trainable": true, "noise_shape": null, "name": "dropout_23", "rate": 0.5, "seed": null}, "name": "dropout_23", "class_name": "Dropout", "inbound_nodes": [[["activation_24", 0, 0, {}]]]}, {"config": {"bias_regularizer": null, "kernel_constraint": null, "activation": "linear", "activity_regularizer": null, "filters": 96, "kernel_regularizer": null, "name": "conv1d_27", "dilation_rate": [1], "kernel_size": [8], "kernel_initializer": {"config": {"distribution": "uniform", "scale": 1.0, "seed": null, "mode": "fan_avg"}, "class_name": "VarianceScaling"}, "trainable": true, "use_bias": true, "padding": "same", "strides": [1], "bias_constraint": null, "bias_initializer": {"config": {}, "class_name": "Zeros"}}, "name": "conv1d_27", "class_name": "Conv1D", "inbound_nodes": [[["dropout_23", 0, 0, {}]]]}, {"config": {"trainable": true, "name": "add_12"}, "name": "add_12", "class_name": "Add", "inbound_nodes": [[["conv1d_27", 0, 0, {}], ["add_11", 0, 0, {}]]]}, {"config": {"gamma_regularizer": null, "momentum": 0.99, "scale": true, "axis": -1, "beta_constraint": null, "gamma_initializer": {"config": {}, "class_name": "Ones"}, "beta_regularizer": null, "epsilon": 0.001, "center": true, "beta_initializer": {"config": {}, "class_name": "Zeros"}, "trainable": true, "gamma_constraint": null, "name": "batch_normalization_25", "moving_mean_initializer": {"config": {}, "class_name": "Zeros"}, "moving_variance_initializer": {"config": {}, "class_name": "Ones"}}, "name": "batch_normalization_25", "class_name": "BatchNormalization", "inbound_nodes": [[["add_12", 0, 0, {}]]]}, {"config": {"activation": "relu", "trainable": true, "name": "activation_25"}, "name": "activation_25", "class_name": "Activation", "inbound_nodes": [[["batch_normalization_25", 0, 0, {}]]]}, {"config": {"trainable": true, "layer": {"config": {"activity_regularizer": null, "kernel_constraint": null, "recurrent_dropout": 0.5, "bias_regularizer": null, "go_backwards": false, "dropout": 0.3, "name": "lstm_1", "return_sequences": true, "use_bias": true, "trainable": true, "bias_constraint": null, "bias_initializer": {"config": {}, "class_name": "Zeros"}, "recurrent_regularizer": null, "recurrent_initializer": {"config": {"gain": 1.0, "seed": null}, "class_name": "Orthogonal"}, "return_state": false, "units": 64, "implementation": 1, "unroll": false, "unit_forget_bias": true, "stateful": false, "kernel_regularizer": null, "recurrent_constraint": null, "activation": "tanh", "recurrent_activation": "hard_sigmoid", "kernel_initializer": {"config": {"distribution": "uniform", "scale": 1.0, "seed": null, "mode": "fan_avg"}, "class_name": "VarianceScaling"}}, "class_name": "LSTM"}, "name": "bidirectional_1", "merge_mode": "sum"}, "name": "bidirectional_1", "class_name": "Bidirectional", "inbound_nodes": [[["activation_25", 0, 0, {}]]]}, {"config": {"trainable": true, "name": "global_max_pooling1d_1"}, "name": "global_max_pooling1d_1", "class_name": "GlobalMaxPooling1D", "inbound_nodes": [[["bidirectional_1", 0, 0, {}]]]}, {"config": {"name": "dense_1", "units": 32, "kernel_constraint": null, "activation": "relu", "activity_regularizer": null, "kernel_regularizer": null, "bias_constraint": null, "bias_regularizer": null, "use_bias": true, "trainable": true, "kernel_initializer": {"config": {"distribution": "uniform", "scale": 1.0, "seed": null, "mode": "fan_avg"}, "class_name": "VarianceScaling"}, "bias_initializer": {"config": {}, "class_name": "Zeros"}}, "name": "dense_1", "class_name": "Dense", "inbound_nodes": [[["global_max_pooling1d_1", 0, 0, {}]]]}, {"config": {"name": "dense_2", "units": 9, "kernel_constraint": null, "activation": "linear", "activity_regularizer": null, "kernel_regularizer": null, "bias_constraint": null, "bias_regularizer": null, "use_bias": true, "trainable": true, "kernel_initializer": {"config": {"distribution": "uniform", "scale": 1.0, "seed": null, "mode": "fan_avg"}, "class_name": "VarianceScaling"}, "bias_initializer": {"config": {}, "class_name": "Zeros"}}, "name": "dense_2", "class_name": "Dense", "inbound_nodes": [[["dense_1", 0, 0, {}]]]}, {"config": {"activation": "softmax", "trainable": true, "name": "activation_26"}, "name": "activation_26", "class_name": "Activation", "inbound_nodes": [[["dense_2", 0, 0, {}]]]}], "input_layers": [["beats_learner", 0, 0]], "name": "model_1", "output_layers": [["activation_26", 0, 0]]}, "backend": "tensorflow", "keras_version": "2.1.6", "class_name": "Model"}